model.pth (torch, 403615 bytes, 6 tensors)

fc1.weight f4 [296, 37]
000000 0e 87 8d 3d a9 4e 8a 3d a1 86 60 be 11 89 14 be
       0.06910525 0.067532845 -0.21926357 -0.14505412
000010 47 c2 c6 bd fe 30 1a 3d 5a 06 9e 3c b4 86 2a 3e
       -0.09705024 0.03764438 0.019290138 0.16652948
000020 9e 42 2c be 58 12 dc 3d 08 5a 47 bd 0e 21 7c bd
       -0.16822287 0.10745686 -0.048669845 -0.06155496
000030 29 90 15 be b8 62 86 bd fd 80 85 be 04 02 10 bd
       -0.14605774 -0.06561798 -0.26074973 -0.035158172
000040 5c f1 7b 3d a5 3a 53 3d 3a de 79 bd be 4d ce bd
       0.061509475 0.0515696 -0.061002947 -0.10073422
000050 99 d1 22 3d 0b 3b b5 3d 42 ed b7 3d fe 22 11 be
       0.03975067 0.08849152 0.089808 -0.14173505
000060 e6 81 85 be 01 0c d8 3d f8 35 be 3d b9 89 3e be
       -0.26075667 0.105491646 0.092876375 -0.18607225
000070 dd ea 78 be 32 68 97 bd 57 27 47 be ab c4 08 3e
       -0.24308343 -0.073929206 -0.194486 0.13356273
000080 c4 36 a3 3d ba 93 15 be a8 44 a0 bd 96 a8 89 be
       0.0796943 -0.14607134 -0.07825595 -0.26886433
000090 c5 4b 8e bd 10 59 50 3d 28 a2 62 3d 1e e4 cd b8
       -0.06948046 0.050866187 0.055330426 -9.817652e-05
0000a0 0e 50 bd bc c7 71 9c be 63 78 ee bd 20 4b 2b be
       -0.023109462 -0.30555555 -0.11644056 -0.16727877
0000b0 a1 46 f3 bd e8 fb 23 be 66 f6 83 3e 61 6f 6f 3d
       -0.11878706 -0.16014063 0.25773925 0.05845583
0000c0 1d 89 07 be aa f4 cd bd 6b 1f 50 3d 76 f1 97 3e
       -0.13235898 -0.100564316 0.050811213 0.29676408
0000d0 21 71 e7 3b 5e 8e 97 3d f7 e6 61 bd a5 3f 20 be
       0.0070630466 0.07400201 -0.055151906 -0.15649278
0000e0 15 46 d5 bd c6 4b 36 be e2 1b 95 be 3f 1c d9 bd
       -0.10413758 -0.17802343 -0.29122835 -0.10601091
0000f0 e0 df 82 3c b8 a5 be 3e 03 9c 28 be 64 55 a5 bd
       0.015975893 0.37235808 -0.16465764 -0.080729276
000100 47 fa 0e 3e 29 67 0f be 2b 41 22 bd 57 31 18 bd
       0.1396266 -0.14004196 -0.03961293 -0.03715643
000110 71 6a cd 3d b3 fe 59 3c 65 8b ed bd 59 24 fe 3d
       0.10030068 0.013305354 -0.11598853 0.124092765
000120 3b 7e 6a 3d 8d 4e cc 3c 66 ee a2 bd 6c c3 61 3e
       0.05724929 0.0249398 -0.07955627 0.22047204
000130 ce fc a5 3d e6 b8 a2 be 72 f6 cd 3d 2b be a6 be
       0.08104859 -0.3178169 0.10056771 -0.32566962
000140 29 16 ab 3b fd cd e2 3d b1 2d a7 3d 6a 3f 60 be
       0.0052211476 0.110744454 0.08163012 -0.2189919
000150 a6 07 07 be f4 c9 69 be 52 61 34 bd df a9 1f 3e
       -0.13186511 -0.22830945 -0.044038124 0.15592144
000160 c9 25 9a 3d 40 42 53 be 83 31 49 3d f3 ba b9 3d
       0.07526738 -0.20630741 0.049119484 0.09068861
000170 a1 e6 27 3d 3b fa e5 bc 94 23 c7 be d5 28 d5 bd
       0.04099143 -0.02807342 -0.3889433 -0.10408179
000180 ee fc 5e 3e 9a 4a 91 bc 32 92 b3 bd 4a 07 b5 bd
       0.21776173 -0.017735768 -0.08768119 -0.08839281
000190 ee 60 25 3e b9 4d 9f 3d 61 c0 8c be 4c 0a 69 bd
       0.16150257 0.07778496 -0.27490523 -0.056894585
0001a0 68 ad 4d be 8e b4 a6 bd c3 c9 0a be 26 30 fa bc
       -0.2008568 -0.08139907 -0.13553528 -0.030540537
0001b0 e4 0a d0 3d 7c b3 36 bc 59 ef 89 bc bb df 1b 3e
       0.10158327 -0.011151191 -0.016837763 0.15222065
0001c0 21 8c 90 bd 8a 8d d9 3d ff c2 5d 3d 7a a5 86 be
       -0.070579775 0.106226996 0.05414104 -0.26298124
0001d0 1a 7b c0 bd 6e a1 e6 3d bc 0b 49 bc dc 4a f7 3c
       -0.0939848 0.11261259 -0.012270864 0.030187063
0001e0 cd 62 02 be c9 c0 8c bd 16 2d 11 3c 4b 75 d2 3d
       -0.12733002 -0.06872708 0.008860847 0.10276278
0001f0 87 70 5a be 95 d4 16 be 0d 3f 16 bd 0c 8c 08 be
       -0.21331988 -0.14729531 -0.036681224 -0.13334674
000200 06 27 3d bc 50 66 94 be 1e a3 30 be 5f 88 92 3d
       -0.011544948 -0.28984308 -0.17249724 0.07154917
000210 fd 94 12 bd 7e 9e d6 bd fc b7 4b 3d b2 f8 8e be
       -0.035786618 -0.10479449 0.049736008 -0.27924114
000220 4e 31 cc bd 63 47 b4 3d c8 51 20 3e 8d b4 08 be
       -0.099703416 0.088026784 0.15656197 -0.13350125
000230 b6 42 af 3d 74 29 0a 3e 01 f6 10 bd 20 0a 80 bc
       0.08557646 0.13492376 -0.035390858 -0.015629828
000240 2a d2 46 be 72 18 57 bf 4d 48 a0 3d f7 f7 7d bc
       -0.19416109 -0.84021676 0.0782629 -0.015501014
000250 0c 6e 6c bd 31 92 ce bc ca bb fc bd b1 70 27 be
       -0.057722136 -0.025216194 -0.123405054 -0.16351582
000260 8f 9a 4b 3d 2d f2 68 3e c9 90 9a bd 7a 52 4d be
       0.049707945 0.22748633 -0.07547147 -0.20050994
000270 36 5b 57 be 3e e2 aa bf d0 79 c1 bd f2 cd 6a ba
       -0.21030888 -1.3350294 -0.09447062 -0.000895708
000280 08 63 5f 3c 69 57 05 3d 5f 0e bc bd f3 83 18 be
       0.013634451 0.032554064 -0.091824286 -0.14894085
000290 3d 07 3e 3d 5b ba c8 3c 58 5c 4b 3d 32 b6 26 3e
       0.04639362 0.024502924 0.049648613 0.1628044
0002a0 df 2f 2e be e0 d2 a7 3d 1a da 2a 3e 65 7d ce bc
       -0.17010449 0.08194518 0.16684762 -0.025206277
0002b0 70 67 5f 3e d1 51 71 3d e0 fb 11 bd 50 db e8 3d
       0.21816802 0.058915917 -0.035640597 0.113699555
0002c0 14 96 1b 3d be e1 b6 be d4 87 09 3e bd e4 c0 bb
       0.037984923 -0.35719103 0.1343072 -0.0058866427
0002d0 f5 f6 f5 3c ab db 47 3d 9a a0 71 3e 0f b6 95 3c
       0.030024985 0.048793476 0.23596421 0.018275289
0002e0 49 d0 1b 3d 3b fe 94 3d 16 e2 dc bb 97 66 73 bd
       0.038040433 0.07275053 -0.0067408187 -0.05942401
0002f0 90 f8 da bd da 39 13 3e 20 d5 4b 3e 84 39 9e 3d
       -0.10691941 0.14377537 0.1990552 0.07725814
000300 8e b9 5e be 1b 99 28 be 0a 1b 99 bf e9 57 02 be
       -0.21750471 -0.16464655 -1.1961377 -0.12728848
000310 ea 07 9e bd 7c e5 94 3d b8 9e b3 bc 66 6b 3a bd
       -0.07716353 0.07270333 -0.021926269 -0.04551258
000320 0f 40 48 3c f1 a7 cd 3d 90 53 06 be e8 75 a2 bc
       0.012222304 0.10041798 -0.13117814 -0.019831613
000330 9b 65 28 be a5 99 fa 3c 9a 70 46 bc d6 36 3c 3e
       -0.1644501 0.030590842 -0.012111807 0.18380293
000340 44 b3 4b 3e 50 7b ad 3d ab 8c ec 3c ac 31 a3 ba
       0.19892603 0.084707856 0.02887567 -0.0012450716
000350 f2 20 4c 3b 52 94 6a bd ab 24 7f bd 7d 5b 10 3d
       0.0031147567 -0.057270356 -0.06229083 0.0352435
000360 c4 4e ca bd ea d8 56 bd 4f c6 c1 3d f5 2d 0c be
       -0.098783046 -0.05245296 0.094616525 -0.13689406
000370 67 62 4b 3c 50 8a 26 3d 25 50 d9 3c fd 71 d2 bc
       0.012413598 0.04065925 0.026527474 -0.02568912
000380 3a b6 43 bd 56 53 ec 3c 70 32 3b be ee e3 42 bd
       -0.047781207 0.028848331 -0.18280959 -0.047580652
000390 0e eb 61 3c a4 4d cf bc 13 3c 30 be 1c d7 40 3e
       0.013788952 -0.025305577 -0.17210416 0.18832058
0003a0 c0 e6 96 bc d1 86 9b 3d b4 ee 6a 3e 9f 52 27 be
       -0.018420577 0.075940736 0.2294262 -0.16340111
0003b0 0a f8 fc 3d e1 e6 5f bd 83 81 06 be cc 6e 9a bc
       0.12351997 -0.054663543 -0.13135342 -0.01885166
0003c0 95 4e a4 3d 1e e1 fb b9 23 89 99 bd 9c b6 5f 3d
       0.08022801 -0.00048042176 -0.0749686 0.05461751
0003d0 a6 9f 4f 3d 64 07 41 be 17 c7 4d 3e e8 2d c5 be
       0.050689362 -0.18850476 0.20095478 -0.38511586
0003e0 16 6e f0 3c 66 bc e6 3d ab 23 18 be 43 bf a5 3d
       0.029349368 0.11266403 -0.14857356 0.08093121
0003f0 dc b7 8f 3e 82 bb d7 bd 46 a1 9a be 7c f5 50 be
       0.2806996 -0.10533811 -0.30201167 -0.20406145

fc1.bias f4 [296]
000000 3f 3a dc bd 6a 87 bc 3a 6b 42 a4 3a 1d 92 0f 3e
       -0.10753297 0.0014383618 0.0012532001 0.14020582
000010 0f 4d 10 bd e5 65 4a 3d 37 19 27 be 43 23 34 be
       -0.03522974 0.04941358 -0.16318212 -0.17591576
000020 e8 b4 81 be 5b 8a c1 3d fb 62 aa bd 04 94 37 3d
       -0.25333333 0.09450217 -0.0831966 0.044818893
000030 5a 76 18 3e 24 5c 93 3d a4 a0 ad 3c 41 c3 d0 bd
       0.14888898 0.07195309 0.021194763 -0.10193492
000040 00 a7 b2 3d cf 7f 0b 3e 83 7c 4c be 15 8c 4a bd
       0.08723259 0.13622974 -0.19969372 -0.04945
000050 b4 f8 50 be 53 c4 c8 bc 24 82 9c 3c 1c 21 fb bd
       -0.20407373 -0.024507677 0.019105025 -0.122621745
000060 68 8b 22 be f5 15 16 3d 89 e8 d4 3d b0 3f 92 bd
       -0.15873492 0.036642034 0.10395915 -0.07141054
000070 1e 31 64 3d e8 10 98 bd 72 77 1e bd d6 e6 df 3d
       0.055710904 -0.074250996 -0.03868813 0.109327
000080 74 0f 63 bd 9d 45 97 bc 62 3d 1b be 8f ff 19 3d
       -0.05543466 -0.018465811 -0.15160134 0.037597235
000090 ec aa bb bd b7 51 e0 bb b9 31 0b 3e 17 eb 1b 3d
       -0.0916346 -0.0068456787 0.13593186 0.038065996
0000a0 bf 4b d0 3c 21 53 35 bd ef 24 a8 bd e2 23 f5 3d
       0.025426744 -0.04426873 -0.082101695 0.11969735
0000b0 5e 17 3d bd f0 47 3e be 31 0d 33 be e8 ab a2 3d
       -0.046164863 -0.1858213 -0.17485501 0.07942945
0000c0 fb 21 4a 3d 80 30 6e bd 4b 2e d8 3d 85 b8 a0 3d
       0.049348813 -0.058151722 0.10555705 0.07847694
0000d0 98 5d 67 bc 7c eb 95 3d 3b a7 a0 3d 08 d7 0e bd
       -0.014121436 0.07320306 0.07844397 -0.03487304
0000e0 7e 06 14 be 14 94 d2 bb f3 17 63 bc 48 cf cf bd
       -0.14455602 -0.0064263437 -0.01386069 -0.10146958
0000f0 07 3d 31 3d 1a 67 2c 3e 86 b8 2f 3d 15 bb f3 3d
       0.04327109 0.16836205 0.042900585 0.119009174
000100 fa 63 4f bb bc 0a 8e bd e0 68 95 bd 06 2b c1 3d
       -0.0031645284 -0.06935641 -0.07295394 0.09432034
000110 dd e4 fc bd 45 e5 be 3c 61 51 23 3c 10 56 24 3e
       -0.1234834 0.023302684 0.009968133 0.16048455
000120 65 d1 d0 bd df 7d e8 bd 21 ff 09 3e 14 bb a2 bd
       -0.10196189 -0.11352133 0.1347623 -0.079458386
000130 79 3e 14 3d 98 25 38 be a1 c5 8d 3d 33 1d 84 3d
       0.03619239 -0.17983091 0.0692246 0.06450882
000140 24 2c 68 bd 76 25 27 bd f8 41 fd 3b 8d f2 f7 bd
       -0.05668272 -0.04080721 0.0077288114 -0.1210681
000150 07 e0 1e 3e 9b fb 53 3d e2 cf 04 3c 05 e9 17 3e
       0.15515147 0.05175362 0.008106204 0.14834984
000160 84 94 13 3e ec b1 8d 3c 1a d8 ea 3d 29 1b e5 bd
       0.14412123 0.017296754 0.11466999 -0.11186821
000170 e2 3b 3e be 80 1b 20 3d d3 be 0d bd ba 5c 39 3e
       -0.18577531 0.039088726 -0.034605812 0.18101779
000180 06 8f 02 be 28 8c 77 bc fe b8 d7 3d 86 61 56 bd
       -0.12749872 -0.015109099 0.10533331 -0.0523391
000190 3d a6 17 be c1 d7 4e bc 62 b4 04 3e 93 d0 d7 bd
       -0.14809509 -0.012624682 0.12959436 -0.10537829
0001a0 87 5b 5d bd 12 ec 29 3d 12 2e 87 3d 6e e3 21 3d
       -0.054042365 0.0414849 0.06600584 0.039523534
0001b0 04 9a 7f bd 1f 1a cb 3d 8c ba cb 3d 35 57 36 be
       -0.06240274 0.099170916 0.0994769 -0.17806704
0001c0 93 4a 89 3d 24 0d d1 3d 11 5f 57 3d 93 a3 88 3d
       0.06703677 0.102075845 0.052580897 0.06671824
0001d0 7c 0d 90 bc 05 b7 08 3e 8b 38 74 3d bb 06 13 3e
       -0.017584555 0.13351066 0.059624236 0.14358036
0001e0 68 e1 cf bd 76 61 ea 3c fd b5 94 3d c4 8a 3c bd
       -0.10150415 0.028610926 0.07261274 -0.046030775
0001f0 f1 93 11 3e e3 66 67 3d 1c 0f a8 3c 5c 65 02 be
       0.14216591 0.056494605 0.020515017 -0.12733978
000200 cf 37 f7 bd e6 c2 7a 3d bd bf 8a 3d cf f1 13 be
       -0.120711915 0.061221026 0.067748524 -0.14447711
000210 4b 61 f1 3c d6 69 89 3b d8 0e 11 3c 2d fb 8c 3d
       0.029465338 0.004193525 0.008853637 0.068838455
000220 b1 50 b8 3d 90 56 04 bd 9c ba 7b bc 2a 37 ec 3d
       0.08999766 -0.032309115 -0.015364315 0.11533959
000230 dd ba 41 bd bb bb a3 3d f0 f5 09 3e b1 84 93 3b
       -0.047297347 0.07994791 0.13472724 0.004501902
000240 00 41 49 be 27 f2 20 be f0 51 c7 3d 93 de b7 bd
       -0.19653702 -0.15717374 0.09732425 -0.089779995
000250 d1 58 27 3e ab 8c 63 bb 4d 9a 05 be 7e b0 35 3e
       0.16342475 -0.0034721296 -0.13047142 0.17743108
000260 1a 43 08 3e 5a 11 46 bd df 8a 86 bd e8 f9 fa bd
       0.13306847 -0.04835639 -0.06569456 -0.12254697
000270 70 87 a0 bd 67 17 0e ba a3 46 72 bd bd 14 26 be
       -0.07838333 -0.00054203573 -0.059149396 -0.16218849
000280 6b 3f 60 bd 45 a6 8b 3d 8c 19 09 3d 68 ba ab bc
       -0.05474798 0.06818823 0.03347163 -0.020962909
000290 df a9 40 be b7 26 ee bd e0 0b e1 3c c3 19 b8 3d
       -0.188148 -0.11628478 0.027471483 0.08989289
0002a0 09 1e 37 3d b2 35 2f be 36 6a 28 3d 0d 18 f7 bd
       0.044706378 -0.17110327 0.041116916 -0.12065134
0002b0 34 5d d6 bd 74 a2 cf 3d 0e f6 d0 3d c9 a3 77 bd
       -0.10466996 0.10138407 0.10203181 -0.060458932
0002c0 32 34 d8 3d 57 33 8e bc 6c ad 18 3d 78 ea 42 be
       0.105568305 -0.017358465 0.037274763 -0.19034755
0002d0 2b 10 2d be 91 51 b2 bd 64 09 61 bc ad 8f 6b 3d
       -0.16900699 -0.08706964 -0.013735149 0.057510067
0002e0 ab 01 d6 3c 52 e5 c8 bd 07 40 e8 3d 4c 1c d6 3d
       0.026123842 -0.098093644 0.11340337 0.10454616
0002f0 57 4a e6 bd 92 d6 61 bd 87 fd d7 3d 67 17 8a bd
       -0.11244648 -0.05513627 0.105464034 -0.06742745
000300 71 d4 eb bd ec 51 c1 3d 9e 3a 1c 3d a0 1d 58 3d
       -0.11515129 0.094394535 0.03814184 0.052762628
000310 8a a5 4a bb ee 3d b1 bd 58 ed b4 37 ea 0f bd 3d
       -0.0030921423 -0.0865439 2.1568194e-05 0.09231551
000320 07 ed 35 bd f6 ec 11 be d6 f7 31 3d 05 bb 9a 3d
       -0.0444155 -0.1425055 0.043449245 0.075552024
000330 b9 40 46 be 3b 8d d0 3c 62 c3 51 3d a6 38 bb bc
       -0.19360627 0.025457969 0.051211722 -0.02285416
000340 01 cf fd 3d 07 7f e5 bb b1 c5 21 3d d5 5a 3e 3c
       0.123929985 -0.007003668 0.039495174 0.011618336
000350 f7 7c b2 bc ea ea b4 3c 38 e7 18 be b1 17 89 3d
       -0.021788104 0.022084672 -0.14931953 0.06693972
000360 56 9c 1b bd 11 41 68 3c 19 73 b9 bd e8 3c 20 be
       -0.03799089 0.014175669 -0.09055156 -0.15648234
000370 8f 86 9a bd ad fb 1c 3d 70 da 30 bd b3 29 2a 3e
       -0.07545196 0.038325954 -0.04317707 0.1661747
000380 8a 7c cd bd b4 40 04 be 45 e9 97 bd b1 f2 5d 3c
       -0.100335196 -0.12915307 -0.074175395 0.013546632
000390 b9 26 af bc c2 04 f8 bd 9b 0b b9 bc f0 1b 7d 3c
       -0.02138077 -0.121102825 -0.022588542 0.015448555
0003a0 2b a1 62 bd 4e 52 09 be 4b c6 2a be e6 db 91 bd
       -0.055329483 -0.13410303 -0.16677205 -0.071220204
0003b0 c1 fc 23 be d6 34 00 bd e1 5f 35 bc 74 c0 d8 3b
       -0.16014387 -0.03130039 -0.011070223 0.006614739
0003c0 b0 87 00 3b 18 24 00 3e 91 47 e8 bd 91 d6 e4 bd
       0.0019612126 0.12513769 -0.11341775 -0.11173738
0003d0 e4 3d 8d bd b4 12 37 3d 18 b2 50 be 5f 1c 74 3d
       -0.0689657 0.04469557 -0.20380437 0.05959737
0003e0 b2 27 18 3e 6b bc 89 3d 98 34 77 3d 02 7f c4 bd
       0.14858893 0.06725391 0.06035289 -0.09594537
0003f0 89 a1 e7 3c 88 12 79 3d f1 eb a1 3d ce 3b b0 3d
       0.028275268 0.06080869 0.079063304 0.08605157

fc2.weight f4 [296, 296]
000000 15 37 59 3d 5b ee e4 bd 35 85 16 be 99 ed 1c 3e
       0.053031046 -0.11178275 -0.14699252 0.15325011
000010 b1 6a 89 bd 1f 07 ec bc df 8a f9 bd ce 25 f1 bc
       -0.06709803 -0.02881199 -0.12184691 -0.029436972
000020 09 89 0a bd 35 84 de bd 68 df 40 3d 55 cb 99 bd
       -0.033822093 -0.1086506 0.047088057 -0.07509486
000030 25 4a 04 bd 01 3c 8e bd 20 af b7 bc 48 bb a1 3c
       -0.032297272 -0.069450386 -0.022422373 0.019742623
000040 02 1f c7 3b 54 3e 39 bd 0f 72 96 bd b1 42 44 be
       0.0060766945 -0.045225456 -0.07345974 -0.19166066
000050 5e bd 3a 3c 9a 7c 8f bd a8 b1 15 bd 9e 7e d6 3d
       0.011397688 -0.07006188 -0.03654638 0.10473369
000060 af e9 aa bd 3e bf 34 bd 4b a7 28 3d 63 38 91 3c
       -0.08345353 -0.044127695 0.041175168 0.017727083
000070 ad a9 22 3d 6f 9b d4 3d 69 b5 e6 bd 52 bf 89 bd
       0.039712597 0.10381209 -0.1126507 -0.067259446
000080 19 8c 7d bc 69 b8 10 bc 7e 53 44 3d 2d 59 b8 3c
       -0.015475296 -0.008833029 0.047931187 0.02250346
000090 45 4c 19 3d 11 94 9c bd 90 92 ec 3d 68 20 c9 bb
       0.037426252 -0.07645429 0.11551392 -0.0061378963
0000a0 a9 46 3f 3d 59 82 51 3d 84 af ee bd d8 29 1b bb
       0.046698246 0.0511497 -0.11654571 -0.0023676064
0000b0 74 fc a9 bd fa 7e 02 bd 6e 91 b3 bb fa bf b2 3c
       -0.08300105 -0.031859376 -0.005479983 0.021820057
0000c0 7e b7 80 3d d3 81 a5 bd ed e7 37 bd 9a 7a b5 3d
       0.06284998 -0.08081403 -0.044898916 0.08861275
0000d0 13 d9 ce bc db 75 a1 bd 65 d1 84 bd 4e d5 29 3d
       -0.025249993 -0.07883807 -0.06485251 0.04146319
0000e0 6e 3c 91 bd 50 20 31 bd f3 cf 88 3b 84 08 10 bb
       -0.07091604 -0.043243706 0.00417518 -0.0021977732
0000f0 e4 fc a1 3d 8d fe 92 bd df 7a b2 3d dd 04 35 3d
       0.07909563 -0.07177458 0.08714842 0.04419409
000100 ce b1 81 3c 71 d0 f5 bd 82 a0 9a 3d 8f 21 24 3e
       0.015831854 -0.12002648 0.07550146 0.16028427
000110 fc 39 cc 3d da 7b 50 bb 34 29 da 3c 2f 48 02 be
       0.09971997 -0.0031812103 0.026630975 -0.12722848
000120 eb 1b 6b 3d 43 d6 be bd 87 5a 31 be af ae 79 bd
       0.05739967 -0.09318211 -0.1731969 -0.060957607
000130 aa 72 8b 3d 5f 01 a0 bd d0 5d 36 3d 2a f5 c3 bc
       0.0680898 -0.078127615 0.04452306 -0.023920614
000140 65 e2 26 3e d4 00 d4 bd b6 8a d2 3d 30 00 a7 bb
       0.162973 -0.103517205 0.10280363 -0.005096458
000150 e9 91 8e bc 12 95 26 3c 00 a5 13 3d 4d 65 f8 3c
       -0.01740356 0.010167377 0.036046028 0.030321741
000160 a4 02 17 be 43 69 9b bd fa 7b 99 bc 2e 2d 2a 3d
       -0.14747101 -0.075884365 -0.018735874 0.041546993
000170 e7 cd 71 3c 16 8a 5a bd 59 eb 3e bd d0 6b 11 be
       0.014758564 -0.053354345 -0.046611164 -0.14201283
000180 3f 26 01 3d 61 16 a1 3d df 3b ba 3c 5d 22 a1 ba
       0.031530615 0.078655966 0.022733627 -0.0012293566
000190 0a 32 01 be 3a da a7 bc 2f 8d 1c bb a9 e2 e0 bb
       -0.12616745 -0.0204898 -0.0023887863 -0.0068629575
0001a0 a7 d2 5e bd 6c de b3 3c 53 dd 45 3e 8e 58 ca bd
       -0.054400112 0.021956645 0.1932271 -0.09880172
0001b0 49 89 f4 bb 3b 70 83 bd dc 73 8e bd 5d e2 04 be
       -0.0074626547 -0.06417891 -0.06955692 -0.12976976
0001c0 a4 10 bd 3d d1 8f 97 3c 35 21 26 bc b0 55 c0 bd
       0.092316896 0.018501194 -0.010139753 -0.093913436
0001d0 25 24 a8 bd ea 17 7d bd 05 35 98 bc 48 4c 94 3d
       -0.08210019 -0.061790384 -0.01857997 0.07241112
0001e0 f7 5f 86 3d 53 e8 82 3d ae d6 6f 3d 38 f3 a1 bd
       0.065612726 0.063919686 0.058554344 -0.079077184
0001f0 22 11 82 bd 50 ae 1b be 21 ac b7 bc a1 bb d1 3c
       -0.06350924 -0.15203214 -0.022420945 0.025602164
000200 e0 1e 1c bd b0 91 00 3d d7 c8 61 3d 6e 59 a2 bb
       -0.038115382 0.03138894 0.055123176 -0.0049545085
000210 29 7f 45 be 33 12 a2 3c c3 aa a3 bd 38 2b 97 ba
       -0.19286789 0.019784069 -0.079915546 -0.0011533266
000220 98 fc d8 bc c1 b2 62 bd 91 a2 07 3e bd 73 d1 bd
       -0.026487634 -0.055346254 0.13245608 -0.102271535
000230 62 ce 8a bd 0b 5d db 3c 01 e1 fa ba 5a e7 8b 3d
       -0.06777646 0.026777765 -0.0019140543 0.06831236
000240 14 e2 13 bc e6 2d df bc ec 58 d5 3a 2e 2d 54 be
       -0.009026069 -0.027243566 0.0016277111 -0.2072036
000250 20 c1 b6 bd 74 76 cc bc 7c cb a1 3d ce 95 af bd
       -0.089235544 -0.024958827 0.0790014 -0.08573495
000260 c2 3e 99 3d 33 3f 3a 3b ff 9e 77 3d ab 04 ad bd
       0.07482673 0.0028419017 0.060454365 -0.08448156
000270 5d c6 ea bd d2 a6 f8 3a 41 a5 45 be b4 08 c2 bb
       -0.11463616 0.0018970615 -0.1930132 -0.0059214476
000280 96 43 31 3d 2a 3c 99 bd ab 8f 2b be 96 e0 83 bc
       0.043277346 -0.074821785 -0.16754024 -0.016098302
000290 ea 7d b8 bc 65 f3 e1 bb 24 53 f4 bd c0 16 8b bc
       -0.022520978 -0.00689547 -0.1192992 -0.016978621
0002a0 b8 24 00 be 81 9a e3 bd 78 6d e2 bc d8 9d 08 be
       -0.12514007 -0.11113454 -0.02764009 -0.13341463
0002b0 f9 03 4b be 47 ba 0e be fc f7 56 bd 1c eb 3d bd
       -0.19825734 -0.13938247 -0.05248259 -0.046366796
0002c0 76 98 67 bd 66 69 a4 3c ac bf 24 bc 7a cc 73 bd
       -0.056541882 0.02006979 -0.010055464 -0.059521176
0002d0 98 fa 14 3c 50 bc 96 3c 8c b1 7a bc 73 18 69 3d
       0.009092949 0.018400341 -0.01530112 0.056908082
0002e0 b3 0f 46 3d ca 2f 52 3d 15 c7 8e 3d 19 a1 71 bd
       0.048354816 0.051315106 0.06971566 -0.058991525
0002f0 c2 85 2a 3d 05 99 a0 bd 53 ea 5b 3d 2a 04 64 3d
       0.041631468 -0.07841686 0.053690266 0.055668034
000300 83 fc 96 bc ae 09 b8 3d 56 fe b8 3c 42 f6 62 be
       -0.018430954 0.08986221 0.022582214 -0.22164252
000310 3a a3 85 3d 07 36 65 3d ef 3e d5 bd e6 9e 05 3e
       0.065252736 0.055959728 -0.10412394 0.13048896
000320 c8 cd 97 3d f3 9c c1 bd 7a 0f b1 3d 0d b7 aa 3d
       0.074122965 -0.09453764 0.0864553 0.083356954
000330 f1 af 35 bd 2c fa 09 be cb 9b 91 bd f1 88 2b bd
       -0.044357244 -0.13474339 -0.07109793 -0.041878644
000340 2e f9 85 3d e0 36 40 3d 76 c2 d3 bd 98 6f 8c 3d
       0.06541668 0.046927333 -0.10339825 0.06857222
000350 2f 04 bb bd 46 c3 a9 3d 96 74 31 bd 36 61 82 bc
       -0.09131657 0.082891986 -0.043324076 -0.015915494
000360 22 05 00 be 3a a7 03 be 0f b2 f3 3d 2a 42 6e 3c
       -0.12501958 -0.1285676 0.11899196 0.014542142
000370 a8 7f 43 be 2e 95 7f bd 25 dc 3f bc ae ae b0 3d
       -0.19091666 -0.06239813 -0.011710201 0.086270675
000380 76 69 d1 3d 80 b3 63 bd 0a b4 e3 bc a9 22 5d 3d
       0.10225193 -0.055591106 -0.02779581 0.053988133
000390 67 64 c8 bd b6 b6 5a 3d 3c c6 05 be 73 ed bb bc
       -0.09784775 0.053396903 -0.13063902 -0.022940373
0003a0 a6 91 79 bd 0c 21 f3 3d 9c 4e fe bd d9 65 3a bd
       -0.060929917 0.118715376 -0.12417337 -0.045507286
0003b0 69 d9 65 bb 29 c4 8a 3c 38 0d 00 3e 90 93 17 be
       -0.0035072214 0.01693924 0.12505043 -0.14802384
0003c0 2f 3b d3 3c fc d7 7a 3e 14 35 51 3c 21 3c 2e be
       0.025785057 0.24496454 0.0127690025 -0.17015125
0003d0 c7 2e e5 bc a3 bb 5f bd c2 5f 4f 3d 17 a6 17 be
       -0.027976407 -0.054622304 0.05062843 -0.14809452
0003e0 f3 15 a5 3d 6a 3d 09 bd 91 42 f2 3c cd de db bd
       0.08060827 -0.033505835 0.029572757 -0.10735855
0003f0 ad 07 dc 3d 53 e6 66 bc 53 8c 2b be 49 b2 b2 3d
       0.107436515 -0.0140929995 -0.16752748 0.087254114

fc2.bias f4 [296]
000000 26 8b 1f 3d 24 f9 92 3c 29 40 c5 bc 58 33 53 3d
       0.03895106 0.017941065 -0.024078446 0.051562637
000010 4c fe 26 3d 39 42 bf 3c ef 88 a0 3c 21 f3 21 39
       0.04076986 0.023347007 0.019596545 0.00015444729
000020 ff 8d 2e bc c0 8a 62 3c 9b b6 0c bd 5e 34 73 3d
       -0.010653972 0.013827026 -0.034353834 0.059376113
000030 60 9f c7 ba fc 0f a5 bc 2a 5d a2 3c 47 1f 22 bd
       -0.0015229993 -0.020149224 0.019819815 -0.03958061
000040 22 3d 81 bc c7 2d 3d bd 56 66 44 bd 54 d1 0c bd
       -0.01577622 -0.046186235 -0.047949158 -0.03437932
000050 d3 09 5c bd 1a 28 8c 3c 3f c6 a6 bd 44 f8 b5 bd
       -0.053720307 0.017108966 -0.08143281 -0.088852435
000060 bb 31 93 bd 74 e8 57 bc f9 6d 1b bd ec 2a 9b 3d
       -0.0718722 -0.01317798 -0.037946675 0.07576546
000070 a3 51 3b 3d d5 14 b2 bb aa a8 79 3a 9e 5c eb 3c
       0.04573215 -0.0054346123 0.0009523729 0.028730687
000080 6f 34 2c 3d f2 f1 0e 3c af f3 37 3c 3a 2e 91 3c
       0.042042192 0.008724676 0.011227532 0.017722238
000090 00 4d c3 3b d0 80 97 bc 64 f3 e5 bc 36 2d 7f bd
       0.005960107 -0.01849404 -0.02807016 -0.062298976
0000a0 ff 9d 02 3c 2a f1 d0 3d 25 8e 82 3d f3 16 55 bd
       0.0079722395 0.102022484 0.06374768 -0.05202384
0000b0 06 61 cf bc 00 d5 7f bd 67 80 be bc bd 12 5e bd
       -0.025314819 -0.062458992 -0.023254586 -0.05421709
0000c0 aa 65 aa bc 27 33 5a 3e 5d 09 ac bd 8c e7 51 bd
       -0.02080043 0.21308576 -0.084002234 -0.05124621
0000d0 1e 50 07 3b 4d 7d 89 3d c4 cc 8c 3d 87 cd 0a bd
       0.0020647119 0.06713352 0.068749934 -0.033887412
0000e0 f2 fa 13 3d 53 5e 71 3d 7f 24 b9 bd 80 5d a8 ba
       0.036127992 0.058927845 -0.09040164 -0.0012845248
0000f0 16 06 3c bd 8b 2c 97 3c 82 cc 23 bd 8e 2a b2 bd
       -0.04590424 0.018453857 -0.039989956 -0.08699523
000100 75 47 00 bd 81 d9 1e 3d b2 33 31 3e ca 62 c4 bc
       -0.031318147 0.038781647 0.17304876 -0.023972888
000110 e8 8e 33 3d 5e 3f ea 3c b2 a1 a6 3c cf fa 6b 3c
       0.043837458 0.028594669 0.020340774 0.014403059
000120 39 43 ce 3d 2e db f9 bc 85 7e 45 bd f3 5b 55 bd
       0.100714155 -0.03050002 -0.04821636 -0.052089643
000130 78 c0 a0 bd 5f e3 4d bd 27 34 a2 3c 2d e3 2a bd
       -0.078492105 -0.050265666 0.019800259 -0.041720558
000140 61 7c 4d bd 15 cb ae 3b e0 70 2e 3d 70 56 59 bd
       -0.050167445 0.005334268 0.042588115 -0.05306095
000150 53 9b 67 bd 17 8e 6d 3c 9b c8 04 bc fb 41 56 bd
       -0.056544613 0.014499209 -0.008104469 -0.052309018
000160 5d 22 e1 bc 56 1e e3 3c 49 aa f3 3c 43 11 4d bd
       -0.027482206 0.027724426 0.029744284 -0.05006529
000170 8f ee 8f bd 64 23 d7 3c 5d d3 5a bb 76 69 be bd
       -0.07027923 0.026261993 -0.0033390142 -0.09297459
000180 c7 26 0c bc a6 21 e8 3c 83 9f ca 3c 1c 75 9d bd
       -0.008554167 0.028336357 0.024734264 -0.076883525
000190 23 f1 1d 3c 5d 1c e8 3b be 40 32 bd f2 41 89 bb
       0.009640011 0.0070834593 -0.043518774 -0.0041887695
0001a0 48 86 8f 3c f9 af e8 bc 2f 78 4a 3c 09 61 8c bc
       0.017520085 -0.028404223 0.012357756 -0.017136114
0001b0 02 b2 a5 3c b9 64 4f 3c b4 9e 3d bc 45 76 20 bd
       0.020226482 0.0126582915 -0.011573482 -0.03917529
0001c0 9b aa c1 bc 28 85 16 3d 9b 5d 16 3d eb 50 09 3d
       -0.023640921 0.03674808 0.036710363 0.033524435
0001d0 db ca 8b bc 31 a4 c6 bb 20 78 26 3d cd 07 a0 bd
       -0.017064502 -0.0060620536 0.040641904 -0.07813988
0001e0 5a 9f 1d 3d ce be f0 bb ea 16 1c 3d 27 4b 97 3c
       0.038482048 -0.0073469644 0.03810779 0.018468453
0001f0 90 10 57 bc 29 2b b6 3c 8a 4e 00 3d 42 1a 39 3c
       -0.013126507 0.022237377 0.0313249 0.011297764
000200 4e 03 42 bc f5 c4 9c bd e8 0e 96 bd 77 45 18 bd
       -0.011841608 -0.07654754 -0.07327062 -0.03717562
000210 90 aa 71 3d 37 01 04 bd 7c 28 1e 3d 48 69 f5 bc
       0.05900055 -0.03222772 0.038612828 -0.029957429
000220 f3 7b 81 bc 35 c2 b1 3c 43 7a 98 bc c3 b9 48 bc
       -0.015806174 0.02169905 -0.018612986 -0.01225132
000230 a9 63 57 bd e7 79 34 3d ef 7c 91 bd b3 c9 5d bb
       -0.052585278 0.044061568 -0.07103907 -0.0033842146
000240 fb 5f b5 bd 53 15 27 bd 40 47 7c bc 7b 3d b2 bd
       -0.088561974 -0.04079182 -0.015397847 -0.08703133
000250 02 ee 96 bc dc e1 2f bd 4b d1 ba 3c ac c9 92 bd
       -0.018424038 -0.042940006 0.022804877 -0.07167372
000260 4d 48 7e bc 5f e9 ca ba 1e 8b 66 3d 21 70 0c 3c
       -0.015520168 -0.0015480927 0.056285016 0.0085716555
000270 10 bb bd bd bd f3 97 bc 01 22 6a bd bf 1a 7a bc
       -0.09264195 -0.01854884 -0.057161335 -0.015265166
000280 2b 12 88 3d d4 72 fe bb 7d 10 b9 bd a3 b1 18 3c
       0.0664409 -0.0077651534 -0.09036348 0.009319696
000290 d9 c1 0d 3d 72 b8 bf bc 9c 6e 83 3c a1 4a 98 3c
       0.034608696 -0.02340338 0.016043954 0.018590273
0002a0 38 d5 47 bd ea 98 69 bd 77 9d 87 bd 57 2f 52 3d
       -0.048787326 -0.057030596 -0.06621831 0.051314678
0002b0 d7 74 0d bd 07 cf 7d 3d 45 b8 9d bd 6b 1c 53 3d
       -0.034535255 0.061965015 -0.07701162 0.051540773
0002c0 11 64 08 3c 63 07 55 bd ff 5e ba bc 15 6b 3b bd
       0.008324639 -0.052008998 -0.022750376 -0.04575642
0002d0 04 a5 ad bd db 65 8b bd 4a 0a 0d 3d 78 f2 dc bb
       -0.0847874 -0.06806537 0.03443364 -0.0067427717
0002e0 f7 d4 89 bc cd 86 b1 3c 62 59 85 bd e2 fd ac 3b
       -0.016825182 0.021670723 -0.06511189 0.0052792886
0002f0 62 92 39 bd 34 da a6 bc 54 43 92 bb 04 ae 1e bc
       -0.045305617 -0.02036772 -0.0044635925 -0.009685043
000300 42 02 ef 3b a7 0d 77 bc 76 00 b3 bc 34 be 81 bd
       0.0072939703 -0.015078939 -0.021850806 -0.063351065
000310 56 63 be bc 5e ba 96 3c 66 d1 c6 bc 72 0a 71 bd
       -0.023240726 0.018399414 -0.02426977 -0.058847852
000320 a0 53 2e 3c 2a 08 1b 3d 32 c8 38 3d bc 55 3f 3d
       0.010640055 0.037849583 0.045112796 0.046712622
000330 f4 92 8e bd d7 50 6c 3c c2 ae bf 3c 50 a3 73 bd
       -0.06961623 0.014423571 0.02339876 -0.05948192
000340 c6 47 85 bc 5e b9 12 3c ac 97 ea bc 87 78 70 3c
       -0.016269576 0.008955328 -0.028636776 0.014677173
000350 43 05 19 bd 08 50 ca bc 29 2d f8 3c 37 3b f6 3c
       -0.037358534 -0.024696365 0.030294972 0.030057533
000360 6f e3 4e 3c 90 6f a8 bd e0 db 89 bd da c4 fc bc
       0.012627467 -0.08224404 -0.06731391 -0.030855585
000370 46 a5 01 bc 53 e2 a5 bd 46 8f 26 bd d4 5d 3f bd
       -0.007912939 -0.080998085 -0.04066398 -0.04672034
000380 3b 59 55 bd 05 4e 94 3c ce 30 6d bd 19 07 33 bd
       -0.05208705 0.018103609 -0.057907872 -0.04370794
000390 7d 0a a5 3b 6b d9 15 3c 91 9a 23 3d 71 51 25 3c
       0.0050366507 0.009146075 0.039942328 0.010090218
0003a0 24 5d ae bc 19 1e 9b bd 4b ad e5 bc 48 91 97 3b
       -0.021284647 -0.075741 -0.028036734 0.004625473
0003b0 00 93 bb bc 96 7c 9c bd a9 ba 76 bd 43 f5 00 bd
       -0.022897243 -0.076409504 -0.060236607 -0.0314839
0003c0 e1 1a 9d 3d 2c 11 36 bd 5e 1d 55 3a 74 e0 ee b9
       0.07671142 -0.04444997 0.0008129681 -0.00045562128
0003d0 8c 7c 67 3b cc 9d 42 bd f0 d0 6f bd fc 0c 4b bd
       0.0035322038 -0.047513768 -0.058548868 -0.04957293
0003e0 52 9a c2 bc c4 7c 09 bd ea f4 23 bc 7d e4 23 3c
       -0.023755226 -0.03356625 -0.0100071225 0.010003206
0003f0 bc 2d ec bb c6 74 87 bd 43 f8 4f 3c da c7 b2 bc
       -0.0072076004 -0.0661407 0.012693468 -0.021823812

fc3.weight f4 [4, 296]
000000 a0 7d 27 3e be c6 a2 3c 51 22 b6 bd 61 8d b2 3d
       0.16356516 0.019870158 -0.08893264 0.08718372
000010 28 72 ad bd b1 aa 33 3e a6 2c bf 39 da c0 90 3d
       -0.08469039 0.17545582 0.00036463625 0.070680335
000020 31 3b ab bd 14 49 2f 3e 98 82 6c 3d a0 ef 74 3c
       -0.08360899 0.17117721 0.05774173 0.014949709
000030 6b 86 c5 3d fd b6 8f 3c 7d 9a 1b be c6 88 53 3e
       0.09644779 0.01754331 -0.15195651 0.20657644
000040 6b 2b ad 3b 9c 15 d2 bd e9 9d 05 bc 8d 12 81 3c
       0.005284717 -0.10258028 -0.0081553245 0.015755916
000050 78 14 b8 3d b9 57 07 3d ff da 22 3a f3 af 57 bd
       0.08988279 0.033042643 0.00062124425 -0.052658033
000060 d1 14 6a 3e a5 b8 02 bd 38 85 04 bd a6 4e ca 3c
       0.22859503 -0.031914372 -0.03235361 0.024695706
000070 80 ec e1 bd fb 33 15 bd 31 8d 6c 3d 24 78 5c bd
       -0.11031437 -0.036426526 0.057751838 -0.053825513
000080 79 0e 40 3d 7a 96 86 3d 76 4b cd bc 8f 0b 71 bd
       0.046888802 0.0657167 -0.025060397 -0.058848914
000090 13 0b c7 3c 88 88 18 3c 42 e9 3c 3d a1 b7 9d bb
       0.024297273 0.009309895 0.04612089 -0.00481315
0000a0 6b f4 84 bc f3 68 6c 3d 10 44 af 3d 4e 34 fd 3c
       -0.016229829 0.057717275 0.08557904 0.03090873
0000b0 c6 dc c7 3b c7 7a b5 3c 2d 27 d6 bd f9 ec 17 bd
       0.0060993163 0.022153271 -0.10456691 -0.03709123
0000c0 c2 ec 02 bb 0d a8 b1 3d 57 c2 14 3d d8 76 3e bc
       -0.0019977544 0.08674631 0.03631815 -0.011625014
0000d0 d6 5c 42 3e ed ed a1 be 0d b1 8a bc 1c 86 21 3d
       0.18980727 -0.31626835 -0.016930128 0.039434537
0000e0 9b 12 db 3d 64 d8 a3 be 1d 2e 07 3e 91 55 2f be
       0.10696908 -0.3200103 0.13201185 -0.17122485
0000f0 1f 1c 58 bc bb 31 94 3c 1f 7c c3 bd d2 0e 3c 3d
       -0.013190298 0.01809012 -0.095451586 0.04591257
000100 5d 4d 15 be 60 f3 47 bd 44 04 7f 3d ef 39 c9 bd
       -0.14580293 -0.048816085 0.062259927 -0.09825503
000110 01 4b df 3d a6 6b c4 3d 8f 21 ce 3c 2d 94 38 be
       0.10902978 0.09590845 0.025162486 -0.18025275
000120 a3 99 78 3d b8 09 92 bd 52 6f ae bd f6 81 8b 3c
       0.060693394 -0.0713076 -0.085173264 0.017029744
000130 8c 91 24 be e6 e7 ad bd 5c f8 c7 3d 3f 75 91 be
       -0.16071147 -0.08491497 0.09764168 -0.28409764
000140 e9 48 90 3d 25 95 ff bd 27 07 9a bd 1a 2f d6 3d
       0.070451565 -0.12479619 -0.075208955 0.10458203
000150 d2 d4 30 bd c5 37 17 3e 4b d0 ed 3d 79 3e a7 bd
       -0.04317171 0.14767368 0.11611994 -0.081662126
000160 90 1f b9 3e 34 6b 23 3a 17 88 b1 bc 4b 07 46 be
       0.36156893 0.0006233931 -0.021671338 -0.1933872
000170 f8 35 1f 3d ad ae 47 be a1 49 70 3d 9e 6b 1f be
       0.038869828 -0.19500227 0.058663968 -0.15568396
000180 29 7d 1a be 01 7a 25 be 75 02 ac 3b 60 71 08 3b
       -0.15086807 -0.16159822 0.0052493163 0.002081953
000190 d3 74 bc 3c 68 bf 8b 3c 9a 05 01 be d5 75 ef bc
       0.023004925 0.017059043 -0.12599793 -0.029230991
0001a0 4f 86 b5 bd 37 24 94 3d 19 43 4c be 35 c5 4a bd
       -0.08863508 0.0723347 -0.1994747 -0.049504478
0001b0 33 f6 cf 3d d2 9e a8 3d a7 68 25 bd 52 53 9a bd
       0.10154381 0.082334176 -0.040383007 -0.07535423
0001c0 dd 0d 80 3d 48 35 64 3d 9d 63 be 3c da d9 2f 3d
       0.06252644 0.055714875 0.023240859 0.04293237
0001d0 a3 52 de bc 0b dd 1d 3e 7b b5 f5 3d 54 6f 2c bd
       -0.027139014 0.15416352 0.11997505 -0.04209836
0001e0 c0 63 8f be 26 d4 0f 3c d0 88 5b 3b f9 bd e8 bc
       -0.2800579 0.0087786075 0.0033498295 -0.028410899
0001f0 86 47 8b bc d8 36 f5 3c 84 c5 be bc 72 07 bf bd
       -0.017001878 0.029933378 -0.023287542 -0.09327592
000200 7d 96 a0 3d 9a 7d 2f bd 69 b3 43 bd 89 bc 19 3d
       0.07841203 -0.042844392 -0.04777852 0.037533317
000210 b4 9f 5f 3c a3 9f 4a 3d b4 69 2c be 77 b6 00 be
       0.013648916 0.049468648 -0.16837198 -0.12569605
000220 2f 5e 3a 3b eb 7f d0 3c 87 bd 82 bd 2e 1b fc 3c
       0.0028437485 0.025451621 -0.06383806 0.030774679
000230 4c 77 53 bd 85 b5 6d 3d 0b e8 2a 3c a4 b8 c9 3b
       -0.051627442 0.05803444 0.0104313 0.006156044
000240 f0 d7 92 bc a9 0c 8d bc 3e 9c d4 3d 9b 1b 9d 3c
       -0.017925233 -0.01721795 0.10381363 0.019178202
000250 77 e2 2e 3e 93 57 00 bd af 26 fc bd 2a d6 32 3d
       0.17078577 -0.031333517 -0.12312066 0.043661274
000260 63 78 01 3e e4 7b ab 3d 00 a9 dd bc 3f ae e7 3c
       0.1264358 0.0837324 -0.027058125 0.02828133
000270 5d fa 04 3e c6 b1 4a 3d 39 e8 b8 bd bd 25 8f bc
       0.12986131 0.049485944 -0.09028668 -0.01747405
000280 2c bb 8b 3d 40 91 04 bd c8 83 3f bd 60 24 42 3d
       0.068228096 -0.032365084 -0.046756536 0.04739797
000290 99 43 91 bd 9b 7b 26 bc 2e 89 68 be ce cc 95 3c
       -0.07092971 -0.010161306 -0.2270858 0.018286135
0002a0 70 ce 2b bd 0b 06 a6 3b c5 68 6b 3d fc 31 90 3d
       -0.04194492 0.0050666383 0.057472963 0.07040784
0002b0 0d 8a 3a 3d 2c 61 b1 3d 13 1f f6 3c e3 02 8e 3d
       0.04554181 0.08661112 0.030044114 0.06934144
0002c0 00 d7 63 3d a1 50 65 bd 77 ce a4 bd 3f db 52 3d
       0.05562496 -0.055985097 -0.080471925 0.05147862
0002d0 65 10 90 3d dc cc 26 bc 7f e1 1c 3d 2a 97 89 3b
       0.07034377 -0.010180678 0.038300987 0.0041989284
0002e0 08 ee f4 bb 4c 43 20 be ec 34 d4 3c cd 2d c8 bd
       -0.0074746646 -0.15650672 0.025904141 -0.09774361
0002f0 a3 f1 21 be 44 7d eb 3d 3e 6a 29 3d de ad 1a be
       -0.15814833 0.11498502 0.041361086 -0.15105388
000300 62 fe 82 bd d1 68 65 bd ff 39 91 3c 10 3e 13 3d
       -0.06396176 -0.056008164 0.01772785 0.03594786
000310 a5 63 70 bc 9d 58 34 3d 2e 89 2b 3d 06 97 87 bd
       -0.014672195 0.04402982 0.04187887 -0.06620602
000320 4d 90 10 3d 0b 14 9c 3d 50 33 52 3e 82 70 ea 3d
       0.035293866 0.076210104 0.20527387 0.114472404
000330 92 9c 35 bc e3 d9 76 3d dd 94 67 be 5c 76 5b bd
       -0.011084693 0.060266387 -0.2261538 -0.053579673
000340 fd 92 63 bd 05 f3 b3 3d e1 3c 79 bd 1d 64 67 be
       -0.0555601 0.08786587 -0.060849074 -0.22596784
000350 d9 b9 3f 3e 04 ef 23 be 34 1a b1 3e 99 99 5a 3c
       0.18723239 -0.16009146 0.34590304 0.013342285
000360 95 00 dc bb 04 46 28 bd 0c 0b 47 bd 23 d7 1f 3e
       -0.0067139366 -0.041082397 -0.04859452 0.15609412
000370 72 2f bc bc 26 c9 3c bd 94 79 fb 3d 5c fe 54 bc
       -0.022971842 -0.046090268 0.122790486 -0.013000097
000380 87 61 f2 bc 1e b3 cb 3d ae 34 91 bc a8 08 1c 3c
       -0.02958752 0.09946273 -0.017725315 0.009523548
000390 25 66 d7 3b 3d 34 c2 3c c8 8a 80 3d 39 ab 12 3d
       0.006573456 0.02370655 0.062764704 0.035807822
0003a0 66 44 d8 3d 7c 27 c5 3c 68 52 9a 3a 85 88 fe bc
       0.10559921 0.02406668 0.0011773827 -0.031070957
0003b0 da 14 c9 3d 8a 6d 1f bd 28 6e d5 bd 0f 06 90 3d
       0.0981843 -0.038922824 -0.10421401 0.070324056
0003c0 df 0e 57 3d 08 79 48 bd ac d5 0a 3d b5 00 8e bc
       0.052504417 -0.04894355 0.03389518 -0.017334322
0003d0 3c 84 e6 bd c0 b8 37 3b 2f 20 ae 3c ff 72 a1 bc
       -0.112556905 0.0028033704 0.02125558 -0.019708155
0003e0 4b 32 35 3e 53 43 3e bd 80 37 22 3d c7 98 0a be
       0.17694966 -0.046450924 0.03960371 -0.13534842
0003f0 a6 d1 8b bd 2e fb 82 bd b9 43 1a bd be 06 12 3e
       -0.06827097 -0.06395565 -0.03766224 0.14260384

fc3.bias f4 [4]
000000 40 2c 0d 3e bb 10 f9 3d 46 27 17 3e b1 77 d0 3d
       0.13786411 0.12161394 0.14761075 0.10179079
